…
ps://localhost:8080/"},"id":"79CmDIiU__e8","executionInfo":{"status":"ok","timestamp":1713966594226,"user_tz":300,"elapsed":321,"user":{"displayName":"Aadhav Senthil","userId":"17536959046915815392"}},"outputId":"658c8612-ebe5-4dc3-f357-d102198f70b6"},"execution_count":null,"outputs":[{"output_type":"stream","name":"stdout","text":["Model: \"sequential\"\n","_________________________________________________________________\n"," Layer (type)                Output Shape              Param #   \n","=================================================================\n"," conv2d (Conv2D)             (None, 254, 254, 16)      448       \n","                                                                 \n"," max_pooling2d (MaxPooling2  (None, 127, 127, 16)      0         \n"," D)                                                              \n","                                                                 \n"," conv2d_1 (Conv2D)           (None, 125, 125, 32)      4640      \n","                                                                 \n"," max_pooling2d_1 (MaxPoolin  (None, 62, 62, 32)        0         \n"," g2D)                                                            \n","                                                                 \n"," conv2d_2 (Conv2D)           (None, 60, 60, 16)        4624      \n","                                                                 \n"," max_pooling2d_2 (MaxPoolin  (None, 30, 30, 16)        0         \n"," g2D)                                                            \n","                                                                 \n"," flatten (Flatten)           (None, 14400)             0         \n","                                                                 \n"," dense (Dense)               (None, 256)               3686656   \n","                                                                 \n"," dense_1 (Dense)             (None, 1)                 257       \n","                                                                 \n","=================================================================\n","Total params: 3696625 (14.10 MB)\n","Trainable params: 3696625 (14.10 MB)\n","Non-trainable params: 0 (0.00 Byte)\n","_________________________________________________________________\n"]}]},{"cell_type":"markdown","source":["train the model"],"met
…
